save_example.pt (torch, 5703 bytes, 3 tensors)

W f4 [100, 10]
-0.106813975 0.5475891 1.0950503 0.039396424 -1.9425054 -0.88018566 0.9537779 -0.20650251
0.8813634 -1.7765077 -0.48262572 0.16360505 -1.0221572 -0.33663565 -0.30033702 -0.39355525
-0.21974733 -0.0047625606 0.19364847 -0.98687804 -1.1747649 0.7248619 0.2804878 -0.7651172
-0.4956427 -3.2549248 0.14171717 0.82189184 -0.62807786 -1.0326394 0.078095675 1.327956
-0.622057 -0.71731865 -0.19824803 0.00089805014 -0.113654576 -1.4507431 -0.48308313 -0.36148417
-0.23743142 -1.3142595 -0.03933426 0.02568829 2.0791006 1.3424699 -0.9080272 0.73054427
0.11514022 -0.024215268 -0.13232093 -1.1866844 -0.7781321 -2.1119435 -1.9410896 -0.0950312
0.6742857 -1.1629632 0.78146064 -0.8304015 -0.5964386 0.24172734 -1.0977166 -0.312426
-2.1355226 -0.25954768 -1.3122095 -0.44767192 1.4406614 -0.5947712 0.54471046 -0.16976857
-0.123570025 -1.4899243 -0.80739224 -0.5587389 0.4252609 0.6091893 2.0677626 1.1975789
-1.444986 -0.39675534 0.69866186 1.3315588 0.5435765 0.087282784 0.2781868 -0.794767
-0.8314442 -0.43797407 -0.34352234 -0.101287834 1.159203 -0.5304025 0.12436614 -0.29291043
0.28467387 -0.8855985 -1.1027969 -0.0934759 -1.1846596 -1.0068473 -0.21637398 1.430154
0.9660935 0.048045754 -0.3050423 -1.2152756 0.29231384 -0.55309665 0.091549 0.7925518
0.10928197 -0.91389906 -0.77380896 1.0541531 0.8246748 0.07536705 1.0336584 -0.638346
-1.5332128 -0.6756069 -0.8730765 0.23364845 0.15668944 -0.49311772 -1.0930074 -0.20064807
-0.6598652 -0.88230884 -0.80503124 0.19787188 -0.71192884 -1.8826478 -0.33836174 0.21375132
-1.0078288 -0.6549736 -0.58588666 0.13641162 0.0009411494 -0.8554103 -0.7660139 -1.5967572
0.5775886 0.010189034 -1.0021269 1.0303494 -0.47094345 1.0858756 -0.7711582 -1.1392397
-0.61744004 1.203882 -1.1660688 0.13943307 -0.32114565 -0.44260016 0.5682442 -0.12982963
1.2717074 -1.1064385 0.3107768 1.8140693 -0.019659191 -0.28761572 0.44996968 0.539554
0.43272725 -0.24278784 0.42754453 -1.7176795 0.479671 -0.15452355 0.7170075 0.6067857
1.4872072 -0.28546914 0.8890331 -0.17162316 -1.2642007 1.2782241 -0.70169854 -0.056954212
1.8926358 0.68030596 0.25896263 0.5530622 -0.5290497 -0.038524207 -0.5003266 -0.8991692
-0.8926214 -0.21059331 -1.3136753 -0.69915223 1.2575725 0.14721864 -1.3106382 -0.54187983
0.8543308 1.0589337 -1.0232445 -0.39393365 -2.196824 -1.5441843 -1.2432827 -0.27636465
-0.8114749 -1.5844423 0.5735646 -0.11934012 0.036018554 -1.1897575 -0.14159802 -1.0728823
-0.08425242 -0.8587479 -1.4950213 0.936636 1.6941147 -0.5299076 -0.6309273 0.26412988
0.41719335 -0.176631 0.24965113 0.38578698 -0.51434034 1.0762143 0.61879915 0.8767696
-0.18438207 1.217917 -0.655518 -0.43918723 0.42122412 -0.22383124 -1.5186125 1.6483932
-0.32817894 -0.6774967 0.62787133 0.04874379 -0.9186755 0.65114105 -0.731075 -1.214285
-1.1009408 -0.7978069 -0.19176106 -1.2758529 0.30330113 0.21770827 -0.20857947 0.21235637
00000000: 49c1 dabd cd2e 0c3f 9c2a 8c3f 255e 213d
00000010: 04a4 f8bf d953 61bf ca2a 743f 6575 53be
00000020: 08a1 613f 9b64 e3bf b81a f7be 1588 273e
00000030: 0cd6 82bf 825b acbe c6c5 99be 1380 c9be
00000040: 7205 61be 410f 9cbb c94b 463e 0aa4 7cbf
00000050: b25e 96bf 8d90 393f 199c 8f3e b9de 43bf
00000060: e1c4 fdbe b050 50c0 4e1e 113e 8167 523f
00000070: b6c9 20bf 872d 84bf a0f0 9f3d 76fa a93f
00000080: 213f 1fbf 32a2 37bf 8801 4bbe 206b 6b3a
00000090: bbc3 e8bd f3b1 b9bf ac56 f7be 7414 b9be
000000a0: 3921 73be a839 a8bf f61c 21bd 4070 d23c
000000b0: fc0f 0540 0ed6 ab3f 7874 68bf f304 3b3f
000000c0: a3ce eb3d 195f c6bc 237f 07be 46e5 97bf
000000d0: aa33 47bf 152a 07c0 a075 f8bf b89f c2bd
000000e0: fd9d 2c3f fadb 94bf ce0d 483f 3195 54bf
000000f0: 33b0 18bf 5f87 773e fa81 8cbf 4df6 9fbe
00000100: 67ac 08c0 6fe3 84be 7bf6 a7bf 4135 e5be
00000110: 9867 b83f ed42 18bf 2572 0b3f d0d7 2dbe
00000120: 4812 fdbd d7b5 bebf 42b1 4ebf 8309 0fbf
00000130: ccbb d93e d4f3 1b3f 3956 0440 444a 993f
00000140: 4df5 b8bf 8423 cbbe 81db 323f 8570 aa3f
00000150: d427 0b3f 51c1 b23d 806e 8e3e da75 4bbf
00000160: 87d9 54bf 233e e0be 29e2 afbe ff6f cfbd
00000170: c460 943f 75c8 07bf adb3 fe3d 5bf8 95be
00000180: c6c0 913e 95b6 62bf 7328 8dbf 4b70 bfbd
00000190: eda2 97bf 5fe0 80bf 2491 5dbe 490f b73f
000001a0: e751 773f a0cb 443d 812e 9cbe 278e 9bbf
000001b0: 29aa 953e be97 0dbf 0b7e bb3d ade4 4a3f
000001c0: 3acf df3d 4af5 69bf 5818 46bf 7dee 863f
000001d0: e31d 533f 0a5a 9a3d eb4e 843f a56a 23bf
000001e0: 5140 c4bf 93f4 2cbf f181 5fbf 8a41 6f3e
000001f0: 3273 203e ed79 fcbe abe7 8bbf b076 4dbe
00000200: edec 28bf fede 61bf 8716 4ebf ed9e 4a3e
00000210: f840 36bf 9afa f0bf c03d adbe a0e1 5a3e
00000220: 8900 81bf 5aac 27bf abfc 15bf 7daf 0b3e
00000230: 78b7 763a 2bfc 5abf 7d19 44bf 8a62 ccbf
00000240: d9dc 133f e8ef 263c b245 80bf 7de2 833f
00000250: 801f f1be f9fd 8a3f a06a 45bf 9bd2 91bf
00000260: 8d10 1ebf ce18 9a3f be41 95bf 8bc7 0e3e
00000270: 346d a4be 7d9c e2be 7478 113f 0ff2 04be
00000280: 4fc7 a23f c79f 8dbf 231e 9f3e 6c33 e83f
00000290: 500c a1bc 5e42 93be 6d62 e63e 3620 0a3f
000002a0: 6d8e dd3e 609d 78be 1ee7 da3e ecdc dbbf
000002b0: 7097 f53e 6c3b 1ebe ce8d 373f 4f56 1b3f
000002c0: ce5c be3f 0329 92be ac97 633f fbbd 2fbe
000002d0: 54d1 a1bf d99c a33f 84a2 33bf d248 69bd
000002e0: e441 f23f 8828 2e3f c096 843e 7c95 0d3f
000002f0: cd6f 07bf 8fcb 1dbd 6715 00bf f42f 66bf
00000300: d682 64bf c6a5 57be 8326 a8bf a4fb 32bf
00000310: 23f8 a03f 7cc0 163e fec2 a7bf a3b8 0abf
00000320: 6cb5 5a3f 248b 873f adf9 82bf acb1 c9be
00000330: c498 0cc0 d5a7 c5bf e323 9fbf ab7f 8dbe
00000340: d2bc 4fbf 01cf cabf 21d5 123f 9868 f4bd
00000350: 3188 133d f949 98bf 12ff 10be 3554 89bf
00000360: 888c acbd e7d6 5bbf dc5c bfbf 60c7 6f3f
00000370: c0d8 d83f 06a8 07bf 7484 21bf 083c 873e
00000380: 5e9a d53e c2de 34be 8ca4 7f3e df85 c53e
00000390: cfab 03bf 64c1 893f 9f69 1e3f f973 603f
000003a0: a7ce 3cbe b4e4 9b3f 07d0 27bf 26dd e0be
000003b0: b0aa d73e 0434 65be e561 c2bf 8cfe d23f
000003c0: 1207 a8be 6c70 2dbf 2dbc 203f 91a7 473d
000003d0: 512e 6bbf 2eb1 263f bb27 3bbf b16d 9bbf
000003e0: a1eb 8cbf 133d 4cbf 035d 44be 264f a3bf
000003f0: 494a 9b3e ebee 5e3e db95 55be f373 593e

vb f4 [1, 10]
-0.2328716 -0.21576698 -0.333274 -0.27468285 -0.23243943 -0.22237006 0.0011223173 -0.22669539
-0.28898856 -0.11945002
00000000: e575 6ebe 05f2 5cbe e4a2 aabe 3ba3 8cbe
00000010: 9a04 6ebe fab4 63be b81a 933a d622 68be
00000020: 4ff6 93be 36a2 f4bd

hb f4 [1, 100]
-0.27855334 0.42907262 0.29184917 0.24405229 -0.12387832 0.58214843 0.33126795 0.24970983
-0.30159265 -0.31412166 -0.23997855 -0.2618085 0.5982938 0.48213428 0.23779126 -0.10349948
-0.31058532 -0.22202992 0.046676565 0.50349456 0.31349105 0.2077194 -0.118092395 -0.17228317
-0.15032795 -0.26539373 0.27563468 0.514167 0.13451977 0.30838254 0.35789448 0.48677683
-0.20992728 -0.22171015 0.006986865 0.21962237 -0.34804258 0.5529319 0.33047214 -0.124463364
-0.28334352 -0.16959852 0.25984082 -0.16248295 0.25050655 0.60081935 0.36243373 0.4811111
0.012852203 0.37558576 0.31052116 -0.22511747 0.49058688 0.16531023 -0.30253637 0.2575448
0.52341324 -0.23306791 -0.07835674 -0.13129164 -0.2854703 -0.1555128 -0.19978659 0.43404683
-0.2590385 -0.13197671 0.0150418915 -0.123036735 -0.23180173 0.40287158 0.089952074 0.3868578
-0.2835287 0.29863515 0.57067543 -0.35286552 0.29179472 0.25911626 -0.58714277 0.21165316
0.24013528 -0.18144017 -0.2830829 -0.26970205 -0.31654954 -0.2896995 -0.2161837 0.25443757
0.39244217 -0.312274 -0.13815905 0.44260207 -0.16679907 0.1411616 -0.20496608 0.1540314
0.1907113 -0.23851772 -0.21333039 -0.14824528
00000000: 8b9e 8ebe 68af db3e 416d 953e d8e8 793e
00000010: ebb3 fdbd ae07 153f f49b a93e efb3 7f3e
00000020: 5a6a 9abe 8ed4 a0be f0bc 75be c40b 86be
00000030: c829 193f 4eda f63e 8d7f 733e 89f7 d3bd
00000040: 0a05 9fbe d05b 63be ed2f 3f3d 05e5 003f
00000050: e681 a03e 65b4 543e 6dda f1bd 006b 30be
00000060: 92ef 19be b0e1 87be fd1f 8d3e 73a0 033f
00000070: 8dbf 093e 51e4 9d3e f23d b73e d03a f93e
00000080: 2df7 56be fc07 63be 12f2 e43b b0e4 603e
00000090: a332 b2be f28c 0d3f a533 a93e a6e6 febd
000000a0: 6712 91be 3cab 2dbe db09 853e ee61 26be
000000b0: 6542 803e 4ccf 193f ea90 b93e 3254 f63e
000000c0: 0c92 523c c74c c03e a1fc 9e3e 3285 66be
000000d0: 342e fb3e 1647 293e 0ce6 9abe e9dc 833e
000000e0: 69fe 053f 5ba9 6ebe 8079 a0bd 5171 06be
000000f0: 2a29 92be bf3e 1fbe db94 4cbe 633b de3e
00000100: b2a0 84be e724 07be 4472 763c affa fbbd
00000110: 6f5d 6dbe 2f45 ce3e cb38 b83d 3a12 c63e
00000120: ac2a 91be b5e6 983e c917 123f caaa b4be
00000130: 1e66 953e e3aa 843e fd4e 16bf 9bbb 583e
00000140: 06e6 753e 74cb 39be 3ef0 90be 6316 8abe
00000150: c812 a2be 7e53 94be 435f 5dbe a445 823e
00000160: 2eee c83e 61e2 9fbe 9179 0dbe bd9c e23e
00000170: 60cd 2abe ab8c 103e a1e2 51be 68ba 1d3e
00000180: d349 433e fd3d 74be 4873 5abe 9ccd 17be
